…
2024-08-11 20:27:20,493 - __main__ - ERROR - An error occurred in main: name 'num_labels' is not defined
2024-08-11 20:28:20,789 - datasets - INFO - PyTorch version 2.4.0 available.
2024-08-11 20:28:39,964 - nni.nas.experiment.experiment - INFO - Checkpoint saved to /home/mati-ur-rehman/nni-experiments/2p0qnads/checkpoint.
2024-08-11 20:28:39,964 - nni.nas.experiment.experiment - INFO - Experiment initialized successfully. Starting exploration strategy...
2024-08-11 20:28:39,965 - nni.nas.strategy.rl - INFO - Sampling models with RL policy:
PPOPolicy(
  (actor): Actor(
    (preprocess): Preprocessor(
      (embedding): Embedding(5, 64)
      (rnn): LSTM(74, 64, batch_first=True)
      (fc): Sequential(
        (0): Linear(in_features=64, out_features=64, bias=True)
        (1): ReLU()
      )
    )
    (linear): Linear(in_features=64, out_features=4, bias=True)
  )
  (critic): Critic(
    (preprocess): Preprocessor(
      (embedding): Embedding(5, 64)
      (rnn): LSTM(74, 64, batch_first=True)
      (fc): Sequential(
        (0): Linear(in_features=64, out_features=64, bias=True)
        (1): ReLU()
      )
    )
    (linear): Linear(in_features=64, out_features=1, bias=True)
  )
  (_actor_critic): ActorCritic(
    (actor): Actor(
      (preprocess): Preprocessor(
        (embedding): Embedding(5, 64)
        (rnn): LSTM(74, 64, batch_first=True)
        (fc): Sequential(
          (0): Linear(in_features=64, out_features=64, bias=True)
          (1): ReLU()
        )
      )
      (linear): Linear(in_features=64, out_features=4, bias=True)
    )
    (critic): Critic(
      (preprocess): Preprocessor(
        (embedding): Embedding(5, 64)
        (rnn): LSTM(74, 64, batch_first=True)
        (fc): Sequential(
          (0): Linear(in_features=64, out_features=64, bias=True)
          (1): ReLU()
        )
      )
      (linear): Linear(in_features=64, out_features=1, bias=True)
    )
  )
)
2024-08-11 20:28:54,452 - nni.nas.execution.sequential - ERROR - Model 1 fails to be executed.
2024-08-11 20:28:54,452 - nni.nas.strategy.base - ERROR - Strategy failed to execute.
2024-08-11 20:28:54,453 - __main__ - ERROR - An error occurred in main: setting an array element with a sequence. The requested array has an inhomogeneous shape after 1 dimensions. The detected shape was (3250,) + inhomogeneous part.
…
2024-08-24 02:17:09,851 - __main__ - ERROR - An error occurred in main: 'RawFormatModelSpace' object has no attribute 'config'
2024-08-24 18:41:59,277 - datasets - INFO - PyTorch version 2.3.1 available.
2024-08-24 18:42:08,410 - nni.nas.experiment.experiment - INFO - Checkpoint saved to /home/spartan/nni-experiments/31f8eb25/checkpoint.
2024-08-24 18:42:08,411 - nni.nas.experiment.experiment - INFO - Experiment initialized successfully. Starting exploration strategy...
2024-08-24 18:42:08,411 - nni.nas.strategy.rl - INFO - Sampling models with RL policy:
PPOPolicy(
  (actor): Actor(
    (preprocess): Preprocessor(
      (embedding): Embedding(4, 64)
      (rnn): LSTM(74, 64, batch_first=True)
      (fc): Sequential(
        (0): Linear(in_features=64, out_features=64, bias=True)
        (1): ReLU()
      )
    )
    (linear): Linear(in_features=64, out_features=3, bias=True)
  )
  (critic): Critic(
    (preprocess): Preprocessor(
      (embedding): Embedding(4, 64)
      (rnn): LSTM(74, 64, batch_first=True)
      (fc): Sequential(
        (0): Linear(in_features=64, out_features=64, bias=True)
        (1): ReLU()
      )
    )
    (linear): Linear(in_features=64, out_features=1, bias=True)
  )
  (_actor_critic): ActorCritic(
    (actor): Actor(
      (preprocess): Preprocessor(
        (embedding): Embedding(4, 64)
        (rnn): LSTM(74, 64, batch_first=True)
        (fc): Sequential(
          (0): Linear(in_features=64, out_features=64, bias=True)
          (1): ReLU()
        )
      )
      (linear): Linear(in_features=64, out_features=3, bias=True)
    )
    (critic): Critic(
      (preprocess): Preprocessor(
        (embedding): Embedding(4, 64)
        (rnn): LSTM(74, 64, batch_first=True)
        (fc): Sequential(
          (0): Linear(in_features=64, out_features=64, bias=True)
          (1): ReLU()
        )
      )
      (linear): Linear(in_features=64, out_features=1, bias=True)
    )
  )
)
2024-08-24 18:42:09,127 - nni.nas.execution.sequential - ERROR - Model 1 fails to be executed.
2024-08-24 18:42:09,128 - nni.nas.strategy.base - ERROR - Strategy failed to execute.
2024-08-24 18:42:09,128 - __main__ - ERROR - An error occurred in main: 'ChosenInputs' object has no attribute 'chosen_index'
2024-08-24 18:42:09,130 - nni.nas.experiment.experiment - INFO - Stopping experiment, please wait...
…
